…
I0902 18:47:23.050806  7616 net.cpp:294] The NetState phase (0) differed from the phase (1) specified by a rule in layer mnist
I0902 18:47:23.050873  7616 net.cpp:294] The NetState phase (0) differed from the phase (1) specified by a rule in layer accuracy
I0902 18:47:23.050979  7616 net.cpp:51] Initializing net from parameters: 
name: "LeNet"
state {
  phase: TRAIN
  level: 0
  stage: ""
}
layer {
  name: "mnist"
  type: "ImageData"
  top: "data"
  top: "label"
  include {
    phase: TRAIN
  }
  transform_param {
    scale: 0.00390625
    mean_value: 128
  }
  image_data_param {
    source: "train_all.txt"
    batch_size: 50
    is_color: false
  }
}
layer {
  name: "odd/conv1"
  type: "Convolution"
  bottom: "data"
  top: "odd/conv1"
  param {
    lr_mult: 0
  }
  param {
    lr_mult: 0
  }
  convolution_param {
    num_output: 20
    kernel_size: 5
    stride: 1
    weight_filler {
      type: "xavier"
    }
    bias_filler {
      type: "constant"
    }
  }
}
layer {
  name: "odd/pool1"
  type: "Pooling"
  bottom: "odd/conv1"
  top: "odd/pool1"
  pooling_param {
    pool: MAX
    kernel_size: 2
    stride: 2
  }
}
layer {
  name: "odd/conv2"
  type: "Convolution"
  bottom: "odd/pool1"
  top: "odd/conv2"
  param {
    lr_mult: 0
  }
  param {
    lr_mult: 0
  }
  convolution_param {
    num_output: 50
    kernel_size: 5
    stride: 1
    weight_filler {
      type: "xavier"
    }
    bias_filler {
      type: "constant"
    }
  }
}
layer {
  name: "odd/pool2"
  type: "Pooling"
  bottom: "odd/conv2"
  top: "odd/pool2"
  pooling_param {
    pool: MAX
    kernel_size: 2
    stride: 2
  }
}
layer {
  name: "odd/ip1"
  type: "InnerProduct"
  bottom: "odd/pool2"
  top: "odd/ip1"
  param {
    lr_mult: 0
  }
  param {
    lr_mult: 0
  }
  inner_product_param {
    num_output: 500
    weight_filler {
      type: "xavier"
    }
    bias_filler {
      type: "constant"
    }
  }
}
layer {
  name: "odd/relu1"
  type: "ReLU"
  bottom: "odd/ip1"
  top: "odd/ip1"
}
layer {
  name: "even/conv1"
  type: "Convolution"
  bottom: "data"
  top: "even/conv1"
  param {
    lr_mult: 0
  }
  param {
    lr_mult: 0
  }
  convolution_param {
    num_output: 20
    kernel_size: 5
    stride: 1
    weight_filler {
      type: "xavier"
    }
    bias_filler {
      type: "constant"
    }
  }
}
layer {
  name: "even/pool1"
  type: "Pooling"
  bottom: "even/conv1"
  top: "even/pool1"
  pooling_param {
    pool: MAX
    kernel_size: 2
    stride: 2
  }
}
layer {
  name: "even/conv2"
  type: "Convolution"
  bottom: "even/pool1"
  top: "even/conv2"
  param {
    lr_mult: 0
  }
  param {
    lr_mult: 0
  }
  convolution_param {
    num_output: 50
    kernel_size: 5
    stride: 1
    weight_filler {
      type: "xavier"
    }
    bias_filler {
      type: "constant"
    }
  }
}
layer {
  name: "even/pool2"
  type: "Pooling"
  bottom: "even/conv2"
  top: "even/pool2"
  pooling_param {
    pool: MAX
    kernel_size: 2
    stride: 2
  }
}
layer {
  name: "even/ip1"
  type: "InnerProduct"
  bottom: "even/pool2"
  top: "even/ip1"
  param {
    lr_mult: 0
  }
  param {
    lr_mult: 0
  }
  inner_product_param {
    num_output: 500
    weight_filler {
      type: "xavier"
    }
    bias_filler {
      type: "constant"
    }
  }
}
layer {
  name: "even/relu1"
  type: "ReLU"
  bottom: "even/ip1"
  top: "even/ip1"
}
layer {
  name: "concat"
  type: "Concat"
  bottom: "odd/ip1"
  bottom: "even/ip1"
  top: "ip1_fused"
  concat_param {
    axis: 1
  }
}
layer {
  name: "ip2"
  type: "InnerProduct"
  bottom: "ip1_fused"
  top: "ip2"
  param {
    lr_mult: 1
  }
  param {
    lr_mult: 2
  }
  inner_product_param {
    num_output: 10
    weight_filler {
      type: "xavier"
    }
    bias_filler {
      type: "constant"
    }
  }
}
layer {
  name: "loss"
  type: "SoftmaxWithLoss"
  bottom: "ip2"
  bottom: "label"
  top: "loss"
}
I0902 18:47:23.051077  7616 layer_factory.hpp:77] Creating layer mnist
I0902 18:47:23.051102  7616 net.cpp:84] Creating Layer mnist
I0902 18:47:23.051107  7616 net.cpp:380] mnist -> data
I0902 18:47:23.051123  7616 net.cpp:380] mnist -> label
I0902 18:47:23.051136  7616 image_data_layer.cpp:38] Opening file train_all.txt
I0902 18:47:23.152323  7616 image_data_layer.cpp:63] A total of 50000 images.
I0902 18:47:23.153966  7616 image_data_layer.cpp:90] output data size: 50,1,28,28
I0902 18:47:23.155093  7616 net.cpp:122] Setting up mnist
I0902 18:47:23.155421  7616 net.cpp:129] Top shape: 50 1 28 28 (39200)
I0902 18:47:23.155427  7616 net.cpp:129] Top shape: 50 (50)
I0902 18:47:23.155431  7616 net.cpp:137] Memory required for data: 157000
I0902 18:47:23.155436  7616 layer_factory.hpp:77] Creating layer data_mnist_0_split
I0902 18:47:23.155447  7616 net.cpp:84] Creating Layer data_mnist_0_split
I0902 18:47:23.155452  7616 net.cpp:406] data_mnist_0_split <- data
I0902 18:47:23.155462  7616 net.cpp:380] data_mnist_0_split -> data_mnist_0_split_0
I0902 18:47:23.155469  7616 net.cpp:380] data_mnist_0_split -> data_mnist_0_split_1
I0902 18:47:23.155477  7616 net.cpp:122] Setting up data_mnist_0_split
I0902 18:47:23.155480  7616 net.cpp:129] Top shape: 50 1 28 28 (39200)
I0902 18:47:23.155483  7616 net.cpp:129] Top shape: 50 1 28 28 (39200)
I0902 18:47:23.155485  7616 net.cpp:137] Memory required for data: 470600
I0902 18:47:23.155488  7616 layer_factory.hpp:77] Creating layer odd/conv1
I0902 18:47:23.155500  7616 net.cpp:84] Creating Layer odd/conv1
I0902 18:47:23.155503  7616 net.cpp:406] odd/conv1 <- data_mnist_0_split_0
I0902 18:47:23.155506  7616 net.cpp:380] odd/conv1 -> odd/conv1
I0902 18:47:23.155544  7616 net.cpp:122] Setting up odd/conv1
I0902 18:47:23.155547  7616 net.cpp:129] Top shape: 50 20 24 24 (576000)
I0902 18:47:23.155550  7616 net.cpp:137] Memory required for data: 2774600
I0902 18:47:23.159189  7616 layer_factory.hpp:77] Creating layer odd/pool1
I0902 18:47:23.159207  7616 net.cpp:84] Creating Layer odd/pool1
I0902 18:47:23.159211  7616 net.cpp:406] odd/pool1 <- odd/conv1
I0902 18:47:23.159216  7616 net.cpp:380] odd/pool1 -> odd/pool1
I0902 18:47:23.159235  7616 net.cpp:122] Setting up odd/pool1
I0902 18:47:23.159240  7616 net.cpp:129] Top shape: 50 20 12 12 (144000)
I0902 18:47:23.159241  7616 net.cpp:137] Memory required for data: 3350600
I0902 18:47:23.159243  7616 layer_factory.hpp:77] Creating layer odd/conv2
I0902 18:47:23.159251  7616 net.cpp:84] Creating Layer odd/conv2
I0902 18:47:23.159253  7616 net.cpp:406] odd/conv2 <- odd/pool1
I0902 18:47:23.159257  7616 net.cpp:380] odd/conv2 -> odd/conv2
I0902 18:47:23.159462  7616 net.cpp:122] Setting up odd/conv2
I0902 18:47:23.159466  7616 net.cpp:129] Top shape: 50 50 8 8 (160000)
I0902 18:47:23.159468  7616 net.cpp:137] Memory required for data: 3990600
I0902 18:47:23.159474  7616 layer_factory.hpp:77] Creating layer odd/pool2
I0902 18:47:23.160382  7616 net.cpp:84] Creating Layer odd/pool2
I0902 18:47:23.160403  7616 net.cpp:406] odd/pool2 <- odd/conv2
I0902 18:47:23.160411  7616 net.cpp:380] odd/pool2 -> odd/pool2
I0902 18:47:23.160424  7616 net.cpp:122] Setting up odd/pool2
I0902 18:47:23.160431  7616 net.cpp:129] Top shape: 50 50 4 4 (40000)
I0902 18:47:23.160434  7616 net.cpp:137] Memory required for data: 4150600
I0902 18:47:23.160436  7616 layer_factory.hpp:77] Creating layer odd/ip1
I0902 18:47:23.160444  7616 net.cpp:84] Creating Layer odd/ip1
I0902 18:47:23.160447  7616 net.cpp:406] odd/ip1 <- odd/pool2
I0902 18:47:23.160452  7616 net.cpp:380] odd/ip1 -> odd/ip1
I0902 18:47:23.167908  7616 net.cpp:122] Setting up odd/ip1
I0902 18:47:23.168622  7616 net.cpp:129] Top shape: 50 500 (25000)
I0902 18:47:23.168630  7616 net.cpp:137] Memory required for data: 4250600
I0902 18:47:23.168645  7616 layer_factory.hpp:77] Creating layer odd/relu1
I0902 18:47:23.168673  7616 net.cpp:84] Creating Layer odd/relu1
I0902 18:47:23.168678  7616 net.cpp:406] odd/relu1 <- odd/ip1
I0902 18:47:23.168682  7616 net.cpp:367] odd/relu1 -> odd/ip1 (in-place)
I0902 18:47:23.168689  7616 net.cpp:122] Setting up odd/relu1
I0902 18:47:23.168691  7616 net.cpp:129] Top shape: 50 500 (25000)
I0902 18:47:23.168694  7616 net.cpp:137] Memory required for data: 4350600
I0902 18:47:23.168695  7616 layer_factory.hpp:77] Creating layer even/conv1
I0902 18:47:23.168704  7616 net.cpp:84] Creating Layer even/conv1
I0902 18:47:23.168707  7616 net.cpp:406] even/conv1 <- data_mnist_0_split_1
I0902 18:47:23.168711  7616 net.cpp:380] even/conv1 -> even/conv1
I0902 18:47:23.168735  7616 net.cpp:122] Setting up even/conv1
I0902 18:47:23.168738  7616 net.cpp:129] Top shape: 50 20 24 24 (576000)
I0902 18:47:23.168740  7616 net.cpp:137] Memory required for data: 6654600
I0902 18:47:23.168745  7616 layer_factory.hpp:77] Creating layer even/pool1
I0902 18:47:23.168750  7616 net.cpp:84] Creating Layer even/pool1
I0902 18:47:23.168751  7616 net.cpp:406] even/pool1 <- even/conv1
I0902 18:47:23.168754  7616 net.cpp:380] even/pool1 -> even/pool1
I0902 18:47:23.168761  7616 net.cpp:122] Setting up even/pool1
I0902 18:47:23.168764  7616 net.cpp:129] Top shape: 50 20 12 12 (144000)
I0902 18:47:23.168766  7616 net.cpp:137] Memory required for data: 7230600
I0902 18:47:23.168768  7616 layer_factory.hpp:77] Creating layer even/conv2
I0902 18:47:23.168772  7616 net.cpp:84] Creating Layer even/conv2
I0902 18:47:23.168774  7616 net.cpp:406] even/conv2 <- even/pool1
I0902 18:47:23.168778  7616 net.cpp:380] even/conv2 -> even/conv2
I0902 18:47:23.168967  7616 net.cpp:122] Setting up even/conv2
I0902 18:47:23.168972  7616 net.cpp:129] Top shape: 50 50 8 8 (160000)
I0902 18:47:23.168973  7616 net.cpp:137] Memory required for data: 7870600
I0902 18:47:23.168978  7616 layer_factory.hpp:77] Creating layer even/pool2
I0902 18:47:23.168982  7616 net.cpp:84] Creating Layer even/pool2
I0902 18:47:23.168984  7616 net.cpp:406] even/pool2 <- even/conv2
I0902 18:47:23.168987  7616 net.cpp:380] even/pool2 -> even/pool2
I0902 18:47:23.168992  7616 net.cpp:122] Setting up even/pool2
I0902 18:47:23.168995  7616 net.cpp:129] Top shape: 50 50 4 4 (40000)
I0902 18:47:23.168998  7616 net.cpp:137] Memory required for data: 8030600
I0902 18:47:23.168999  7616 layer_factory.hpp:77] Creating layer even/ip1
I0902 18:47:23.169004  7616 net.cpp:84] Creating Layer even/ip1
I0902 18:47:23.169006  7616 net.cpp:406] even/ip1 <- even/pool2
I0902 18:47:23.169009  7616 net.cpp:380] even/ip1 -> even/ip1
I0902 18:47:23.177775  7616 net.cpp:122] Setting up even/ip1
I0902 18:47:23.181980  7616 net.cpp:129] Top shape: 50 500 (25000)
I0902 18:47:23.182003  7616 net.cpp:137] Memory required for data: 8130600
I0902 18:47:23.182018  7616 layer_factory.hpp:77] Creating layer even/relu1
I0902 18:47:23.182029  7616 net.cpp:84] Creating Layer even/relu1
I0902 18:47:23.182031  7616 net.cpp:406] even/relu1 <- even/ip1
I0902 18:47:23.182037  7616 net.cpp:367] even/relu1 -> even/ip1 (in-place)
I0902 18:47:23.182046  7616 net.cpp:122] Setting up even/relu1
I0902 18:47:23.182049  7616 net.cpp:129] Top shape: 50 500 (25000)
I0902 18:47:23.182051  7616 net.cpp:137] Memory required for data: 8230600
I0902 18:47:23.182054  7616 layer_factory.hpp:77] Creating layer concat
I0902 18:47:23.182060  7616 net.cpp:84] Creating Layer concat
I0902 18:47:23.182062  7616 net.cpp:406] concat <- odd/ip1
I0902 18:47:23.182065  7616 net.cpp:406] concat <- even/ip1
I0902 18:47:23.182070  7616 net.cpp:380] concat -> ip1_fused
I0902 18:47:23.182082  7616 net.cpp:122] Setting up concat
I0902 18:47:23.182085  7616 net.cpp:129] Top shape: 50 1000 (50000)
I0902 18:47:23.182087  7616 net.cpp:137] Memory required for data: 8430600
I0902 18:47:23.182090  7616 layer_factory.hpp:77] Creating layer ip2
I0902 18:47:23.182096  7616 net.cpp:84] Creating Layer ip2
I0902 18:47:23.182097  7616 net.cpp:406] ip2 <- ip1_fused
I0902 18:47:23.182101  7616 net.cpp:380] ip2 -> ip2
I0902 18:47:23.182209  7616 net.cpp:122] Setting up ip2
I0902 18:47:23.182214  7616 net.cpp:129] Top shape: 50 10 (500)
I0902 18:47:23.182215  7616 net.cpp:137] Memory required for data: 8432600
I0902 18:47:23.182219  7616 layer_factory.hpp:77] Creating layer loss
I0902 18:47:23.182226  7616 net.cpp:84] Creating Layer loss
I0902 18:47:23.182229  7616 net.cpp:406] loss <- ip2
I0902 18:47:23.182231  7616 net.cpp:406] loss <- label
I0902 18:47:23.182236  7616 net.cpp:380] loss -> loss
I0902 18:47:23.182245  7616 layer_factory.hpp:77] Creating layer loss
…
I0902 18:47:23.192571  7616 solver.cpp:175] Creating test net (#0) specified by net file: lenet_fusion_train_val.prototxt
I0902 18:47:23.192713  7616 net.cpp:294] The NetState phase (1) differed from the phase (0) specified by a rule in layer mnist
I0902 18:47:23.192824  7616 net.cpp:51] Initializing net from parameters: 
name: "LeNet"
state {
  phase: TEST
}
layer {
  name: "mnist"
  type: "ImageData"
  top: "data"
  top: "label"
  include {
    phase: TEST
  }
  transform_param {
    scale: 0.00390625
    mean_value: 128
  }
  image_data_param {
    source: "val_all.txt"
    batch_size: 20
    is_color: false
  }
}
layer {
  name: "odd/conv1"
  type: "Convolution"
  bottom: "data"
  top: "odd/conv1"
  param {
    lr_mult: 0
  }
  param {
    lr_mult: 0
  }
  convolution_param {
    num_output: 20
    kernel_size: 5
    stride: 1
    weight_filler {
      type: "xavier"
    }
    bias_filler {
      type: "constant"
    }
  }
}
layer {
  name: "odd/pool1"
  type: "Pooling"
  bottom: "odd/conv1"
  top: "odd/pool1"
  pooling_param {
    pool: MAX
    kernel_size: 2
    stride: 2
  }
}
layer {
  name: "odd/conv2"
  type: "Convolution"
  bottom: "odd/pool1"
  top: "odd/conv2"
  param {
    lr_mult: 0
  }
  param {
    lr_mult: 0
  }
  convolution_param {
    num_output: 50
    kernel_size: 5
    stride: 1
    weight_filler {
      type: "xavier"
    }
    bias_filler {
      type: "constant"
    }
  }
}
layer {
  name: "odd/pool2"
  type: "Pooling"
  bottom: "odd/conv2"
  top: "odd/pool2"
  pooling_param {
    pool: MAX
    kernel_size: 2
    stride: 2
  }
}
layer {
  name: "odd/ip1"
  type: "InnerProduct"
  bottom: "odd/pool2"
  top: "odd/ip1"
  param {
    lr_mult: 0
  }
  param {
    lr_mult: 0
  }
  inner_product_param {
    num_output: 500
    weight_filler {
      type: "xavier"
    }
    bias_filler {
      type: "constant"
    }
  }
}
layer {
  name: "odd/relu1"
  type: "ReLU"
  bottom: "odd/ip1"
  top: "odd/ip1"
}
layer {
  name: "even/conv1"
  type: "Convolution"
  bottom: "data"
  top: "even/conv1"
  param {
    lr_mult: 0
  }
  param {
    lr_mult: 0
  }
  convolution_param {
    num_output: 20
    kernel_size: 5
    stride: 1
    weight_filler {
      type: "xavier"
    }
    bias_filler {
      type: "constant"
    }
  }
}
layer {
  name: "even/pool1"
  type: "Pooling"
  bottom: "even/conv1"
  top: "even/pool1"
  pooling_param {
    pool: MAX
    kernel_size: 2
    stride: 2
  }
}
layer {
  name: "even/conv2"
  type: "Convolution"
  bottom: "even/pool1"
  top: "even/conv2"
  param {
    lr_mult: 0
  }
  param {
    lr_mult: 0
  }
  convolution_param {
    num_output: 50
    kernel_size: 5
    stride: 1
    weight_filler {
      type: "xavier"
    }
    bias_filler {
      type: "constant"
    }
  }
}
layer {
  name: "even/pool2"
  type: "Pooling"
  bottom: "even/conv2"
  top: "even/pool2"
  pooling_param {
    pool: MAX
    kernel_size: 2
    stride: 2
  }
}
layer {
  name: "even/ip1"
  type: "InnerProduct"
  bottom: "even/pool2"
  top: "even/ip1"
  param {
    lr_mult: 0
  }
  param {
    lr_mult: 0
  }
  inner_product_param {
    num_output: 500
    weight_filler {
      type: "xavier"
    }
    bias_filler {
      type: "constant"
    }
  }
}
layer {
  name: "even/relu1"
  type: "ReLU"
  bottom: "even/ip1"
  top: "even/ip1"
}
layer {
  name: "concat"
  type: "Concat"
  bottom: "odd/ip1"
  bottom: "even/ip1"
  top: "ip1_fused"
  concat_param {
    axis: 1
  }
}
layer {
  name: "ip2"
  type: "InnerProduct"
  bottom: "ip1_fused"
  top: "ip2"
  param {
    lr_mult: 1
  }
  param {
    lr_mult: 2
  }
  inner_product_param {
    num_output: 10
    weight_filler {
      type: "xavier"
    }
    bias_filler {
      type: "constant"
    }
  }
}
layer {
  name: "accuracy"
  type: "Accuracy"
  bottom: "ip2"
  bottom: "label"
  top: "accuracy"
  include {
    phase: TEST
  }
}
layer {
  name: "loss"
  type: "SoftmaxWithLoss"
  bottom: "ip2"
  bottom: "label"
  top: "loss"
}
I0902 18:47:23.192922  7616 layer_factory.hpp:77] Creating layer mnist
I0902 18:47:23.192935  7616 net.cpp:84] Creating Layer mnist
I0902 18:47:23.192939  7616 net.cpp:380] mnist -> data
I0902 18:47:23.192948  7616 net.cpp:380] mnist -> label
I0902 18:47:23.192955  7616 image_data_layer.cpp:38] Opening file val_all.txt
I0902 18:47:23.235662  7616 image_data_layer.cpp:63] A total of 10000 images.
I0902 18:47:23.244559  7616 image_data_layer.cpp:90] output data size: 20,1,28,28
I0902 18:47:23.244820  7616 net.cpp:122] Setting up mnist
I0902 18:47:23.244915  7616 net.cpp:129] Top shape: 20 1 28 28 (15680)
I0902 18:47:23.245000  7616 net.cpp:129] Top shape: 20 (20)
I0902 18:47:23.245081  7616 net.cpp:137] Memory required for data: 62800
I0902 18:47:23.245121  7616 layer_factory.hpp:77] Creating layer data_mnist_0_split
I0902 18:47:23.245138  7616 net.cpp:84] Creating Layer data_mnist_0_split
I0902 18:47:23.245142  7616 net.cpp:406] data_mnist_0_split <- data
I0902 18:47:23.245148  7616 net.cpp:380] data_mnist_0_split -> data_mnist_0_split_0
I0902 18:47:23.245157  7616 net.cpp:380] data_mnist_0_split -> data_mnist_0_split_1
I0902 18:47:23.245163  7616 net.cpp:122] Setting up data_mnist_0_split
I0902 18:47:23.245167  7616 net.cpp:129] Top shape: 20 1 28 28 (15680)
I0902 18:47:23.245170  7616 net.cpp:129] Top shape: 20 1 28 28 (15680)
I0902 18:47:23.245172  7616 net.cpp:137] Memory required for data: 188240
I0902 18:47:23.245174  7616 layer_factory.hpp:77] Creating layer label_mnist_1_split
I0902 18:47:23.245178  7616 net.cpp:84] Creating Layer label_mnist_1_split
I0902 18:47:23.245182  7616 net.cpp:406] label_mnist_1_split <- label
I0902 18:47:23.245184  7616 net.cpp:380] label_mnist_1_split -> label_mnist_1_split_0
I0902 18:47:23.245189  7616 net.cpp:380] label_mnist_1_split -> label_mnist_1_split_1
I0902 18:47:23.245213  7616 net.cpp:122] Setting up label_mnist_1_split
I0902 18:47:23.245218  7616 net.cpp:129] Top shape: 20 (20)
I0902 18:47:23.245219  7616 net.cpp:129] Top shape: 20 (20)
I0902 18:47:23.245221  7616 net.cpp:137] Memory required for data: 188400
I0902 18:47:23.245223  7616 layer_factory.hpp:77] Creating layer odd/conv1
I0902 18:47:23.245232  7616 net.cpp:84] Creating Layer odd/conv1
I0902 18:47:23.245234  7616 net.cpp:406] odd/conv1 <- data_mnist_0_split_0
I0902 18:47:23.245239  7616 net.cpp:380] odd/conv1 -> odd/conv1
I0902 18:47:23.245263  7616 net.cpp:122] Setting up odd/conv1
I0902 18:47:23.245266  7616 net.cpp:129] Top shape: 20 20 24 24 (230400)
I0902 18:47:23.245268  7616 net.cpp:137] Memory required for data: 1110000
I0902 18:47:23.245276  7616 layer_factory.hpp:77] Creating layer odd/pool1
I0902 18:47:23.245281  7616 net.cpp:84] Creating Layer odd/pool1
I0902 18:47:23.245283  7616 net.cpp:406] odd/pool1 <- odd/conv1
I0902 18:47:23.245287  7616 net.cpp:380] odd/pool1 -> odd/pool1
I0902 18:47:23.245293  7616 net.cpp:122] Setting up odd/pool1
I0902 18:47:23.245296  7616 net.cpp:129] Top shape: 20 20 12 12 (57600)
I0902 18:47:23.245298  7616 net.cpp:137] Memory required for data: 1340400
I0902 18:47:23.245301  7616 layer_factory.hpp:77] Creating layer odd/conv2
I0902 18:47:23.245306  7616 net.cpp:84] Creating Layer odd/conv2
I0902 18:47:23.245307  7616 net.cpp:406] odd/conv2 <- odd/pool1
I0902 18:47:23.245311  7616 net.cpp:380] odd/conv2 -> odd/conv2
I0902 18:47:23.247483  7616 net.cpp:122] Setting up odd/conv2
I0902 18:47:23.247617  7616 net.cpp:129] Top shape: 20 50 8 8 (64000)
I0902 18:47:23.248203  7616 net.cpp:137] Memory required for data: 1596400
I0902 18:47:23.248221  7616 layer_factory.hpp:77] Creating layer odd/pool2
I0902 18:47:23.248230  7616 net.cpp:84] Creating Layer odd/pool2
I0902 18:47:23.248234  7616 net.cpp:406] odd/pool2 <- odd/conv2
I0902 18:47:23.248237  7616 net.cpp:380] odd/pool2 -> odd/pool2
I0902 18:47:23.248246  7616 net.cpp:122] Setting up odd/pool2
I0902 18:47:23.248250  7616 net.cpp:129] Top shape: 20 50 4 4 (16000)
I0902 18:47:23.248252  7616 net.cpp:137] Memory required for data: 1660400
I0902 18:47:23.248255  7616 layer_factory.hpp:77] Creating layer odd/ip1
I0902 18:47:23.248260  7616 net.cpp:84] Creating Layer odd/ip1
I0902 18:47:23.248262  7616 net.cpp:406] odd/ip1 <- odd/pool2
I0902 18:47:23.248266  7616 net.cpp:380] odd/ip1 -> odd/ip1
I0902 18:47:23.256867  7616 net.cpp:122] Setting up odd/ip1
I0902 18:47:23.257895  7616 net.cpp:129] Top shape: 20 500 (10000)
I0902 18:47:23.259196  7616 net.cpp:137] Memory required for data: 1700400
I0902 18:47:23.268604  7616 layer_factory.hpp:77] Creating layer odd/relu1
I0902 18:47:23.269474  7616 net.cpp:84] Creating Layer odd/relu1
I0902 18:47:23.270228  7616 net.cpp:406] odd/relu1 <- odd/ip1
I0902 18:47:23.270843  7616 net.cpp:367] odd/relu1 -> odd/ip1 (in-place)
I0902 18:47:23.270856  7616 net.cpp:122] Setting up odd/relu1
I0902 18:47:23.270861  7616 net.cpp:129] Top shape: 20 500 (10000)
I0902 18:47:23.270864  7616 net.cpp:137] Memory required for data: 1740400
I0902 18:47:23.270866  7616 layer_factory.hpp:77] Creating layer even/conv1
I0902 18:47:23.270875  7616 net.cpp:84] Creating Layer even/conv1
I0902 18:47:23.270879  7616 net.cpp:406] even/conv1 <- data_mnist_0_split_1
I0902 18:47:23.270882  7616 net.cpp:380] even/conv1 -> even/conv1
I0902 18:47:23.271076  7616 net.cpp:122] Setting up even/conv1
I0902 18:47:23.271081  7616 net.cpp:129] Top shape: 20 20 24 24 (230400)
I0902 18:47:23.271083  7616 net.cpp:137] Memory required for data: 2662000
I0902 18:47:23.271090  7616 layer_factory.hpp:77] Creating layer even/pool1
I0902 18:47:23.271095  7616 net.cpp:84] Creating Layer even/pool1
I0902 18:47:23.271097  7616 net.cpp:406] even/pool1 <- even/conv1
I0902 18:47:23.271101  7616 net.cpp:380] even/pool1 -> even/pool1
I0902 18:47:23.271108  7616 net.cpp:122] Setting up even/pool1
I0902 18:47:23.271111  7616 net.cpp:129] Top shape: 20 20 12 12 (57600)
I0902 18:47:23.271113  7616 net.cpp:137] Memory required for data: 2892400
I0902 18:47:23.271134  7616 layer_factory.hpp:77] Creating layer even/conv2
I0902 18:47:23.271140  7616 net.cpp:84] Creating Layer even/conv2
I0902 18:47:23.271142  7616 net.cpp:406] even/conv2 <- even/pool1
I0902 18:47:23.271147  7616 net.cpp:380] even/conv2 -> even/conv2
I0902 18:47:23.271323  7616 net.cpp:122] Setting up even/conv2
I0902 18:47:23.271327  7616 net.cpp:129] Top shape: 20 50 8 8 (64000)
I0902 18:47:23.271330  7616 net.cpp:137] Memory required for data: 3148400
I0902 18:47:23.271337  7616 layer_factory.hpp:77] Creating layer even/pool2
I0902 18:47:23.271339  7616 net.cpp:84] Creating Layer even/pool2
I0902 18:47:23.271342  7616 net.cpp:406] even/pool2 <- even/conv2
I0902 18:47:23.271344  7616 net.cpp:380] even/pool2 -> even/pool2
I0902 18:47:23.271349  7616 net.cpp:122] Setting up even/pool2
I0902 18:47:23.271353  7616 net.cpp:129] Top shape: 20 50 4 4 (16000)
I0902 18:47:23.271354  7616 net.cpp:137] Memory required for data: 3212400
I0902 18:47:23.271356  7616 layer_factory.hpp:77] Creating layer even/ip1
I0902 18:47:23.271361  7616 net.cpp:84] Creating Layer even/ip1
I0902 18:47:23.271363  7616 net.cpp:406] even/ip1 <- even/pool2
I0902 18:47:23.271366  7616 net.cpp:380] even/ip1 -> even/ip1
I0902 18:47:23.289957  7616 net.cpp:122] Setting up even/ip1
I0902 18:47:23.291762  7616 net.cpp:129] Top shape: 20 500 (10000)
I0902 18:47:23.293617  7616 net.cpp:137] Memory required for data: 3252400
I0902 18:47:23.294669  7616 layer_factory.hpp:77] Creating layer even/relu1
I0902 18:47:23.295498  7616 net.cpp:84] Creating Layer even/relu1
I0902 18:47:23.296372  7616 net.cpp:406] even/relu1 <- even/ip1
I0902 18:47:23.297116  7616 net.cpp:367] even/relu1 -> even/ip1 (in-place)
I0902 18:47:23.297303  7616 net.cpp:122] Setting up even/relu1
I0902 18:47:23.297433  7616 net.cpp:129] Top shape: 20 500 (10000)
I0902 18:47:23.298108  7616 net.cpp:137] Memory required for data: 3292400
I0902 18:47:23.298116  7616 layer_factory.hpp:77] Creating layer concat
I0902 18:47:23.298125  7616 net.cpp:84] Creating Layer concat
I0902 18:47:23.298127  7616 net.cpp:406] concat <- odd/ip1
I0902 18:47:23.298132  7616 net.cpp:406] concat <- even/ip1
I0902 18:47:23.298136  7616 net.cpp:380] concat -> ip1_fused
I0902 18:47:23.298147  7616 net.cpp:122] Setting up concat
I0902 18:47:23.298152  7616 net.cpp:129] Top shape: 20 1000 (20000)
I0902 18:47:23.298154  7616 net.cpp:137] Memory required for data: 3372400
I0902 18:47:23.298156  7616 layer_factory.hpp:77] Creating layer ip2
I0902 18:47:23.298164  7616 net.cpp:84] Creating Layer ip2
I0902 18:47:23.298166  7616 net.cpp:406] ip2 <- ip1_fused
I0902 18:47:23.298171  7616 net.cpp:380] ip2 -> ip2
I0902 18:47:23.298249  7616 net.cpp:122] Setting up ip2
I0902 18:47:23.298254  7616 net.cpp:129] Top shape: 20 10 (200)
I0902 18:47:23.298254  7616 net.cpp:137] Memory required for data: 3373200
I0902 18:47:23.298260  7616 layer_factory.hpp:77] Creating layer ip2_ip2_0_split
I0902 18:47:23.298264  7616 net.cpp:84] Creating Layer ip2_ip2_0_split
I0902 18:47:23.298266  7616 net.cpp:406] ip2_ip2_0_split <- ip2
I0902 18:47:23.298270  7616 net.cpp:380] ip2_ip2_0_split -> ip2_ip2_0_split_0
I0902 18:47:23.298274  7616 net.cpp:380] ip2_ip2_0_split -> ip2_ip2_0_split_1
I0902 18:47:23.298280  7616 net.cpp:122] Setting up ip2_ip2_0_split
I0902 18:47:23.298282  7616 net.cpp:129] Top shape: 20 10 (200)
I0902 18:47:23.298285  7616 net.cpp:129] Top shape: 20 10 (200)
I0902 18:47:23.298286  7616 net.cpp:137] Memory required for data: 3374800
I0902 18:47:23.298288  7616 layer_factory.hpp:77] Creating layer accuracy
I0902 18:47:23.298292  7616 net.cpp:84] Creating Layer accuracy
I0902 18:47:23.298295  7616 net.cpp:406] accuracy <- ip2_ip2_0_split_0
I0902 18:47:23.298297  7616 net.cpp:406] accuracy <- label_mnist_1_split_0
I0902 18:47:23.298301  7616 net.cpp:380] accuracy -> accuracy
…
