…
I0902 23:26:44.665135  9659 net.cpp:294] The NetState phase (0) differed from the phase (1) specified by a rule in layer mnist
I0902 23:26:44.665710  9659 net.cpp:294] The NetState phase (0) differed from the phase (1) specified by a rule in layer accuracy
I0902 23:26:44.665818  9659 net.cpp:51] Initializing net from parameters: 
name: "LeNet"
state {
  phase: TRAIN
  level: 0
  stage: ""
}
layer {
  name: "mnist"
  type: "ImageData"
  top: "data"
  top: "label"
  include {
    phase: TRAIN
  }
  transform_param {
    scale: 0.00390625
    mean_value: 128
  }
  image_data_param {
    source: "train_all.txt"
    batch_size: 50
    is_color: false
  }
}
layer {
  name: "odd/conv1"
  type: "Convolution"
  bottom: "data"
  top: "odd/conv1"
  param {
    lr_mult: 0
  }
  param {
    lr_mult: 0
  }
  convolution_param {
    num_output: 20
    kernel_size: 5
    stride: 1
    weight_filler {
      type: "xavier"
    }
    bias_filler {
      type: "constant"
    }
  }
}
layer {
  name: "odd/pool1"
  type: "Pooling"
  bottom: "odd/conv1"
  top: "odd/pool1"
  pooling_param {
    pool: MAX
    kernel_size: 2
    stride: 2
  }
}
layer {
  name: "odd/conv2"
  type: "Convolution"
  bottom: "odd/pool1"
  top: "odd/conv2"
  param {
    lr_mult: 0
  }
  param {
    lr_mult: 0
  }
  convolution_param {
    num_output: 50
    kernel_size: 5
    stride: 1
    weight_filler {
      type: "xavier"
    }
    bias_filler {
      type: "constant"
    }
  }
}
layer {
  name: "odd/pool2"
  type: "Pooling"
  bottom: "odd/conv2"
  top: "odd/pool2"
  pooling_param {
    pool: MAX
    kernel_size: 2
    stride: 2
  }
}
layer {
  name: "odd/ip1"
  type: "InnerProduct"
  bottom: "odd/pool2"
  top: "odd/ip1"
  param {
    lr_mult: 0
  }
  param {
    lr_mult: 0
  }
  inner_product_param {
    num_output: 500
    weight_filler {
      type: "xavier"
    }
    bias_filler {
      type: "constant"
    }
  }
}
layer {
  name: "odd/relu1"
  type: "ReLU"
  bottom: "odd/ip1"
  top: "odd/ip1"
}
layer {
  name: "even/conv1"
  type: "Convolution"
  bottom: "data"
  top: "even/conv1"
  param {
    lr_mult: 0
  }
  param {
    lr_mult: 0
  }
  convolution_param {
    num_output: 20
    kernel_size: 5
    stride: 1
    weight_filler {
      type: "xavier"
    }
    bias_filler {
      type: "constant"
    }
  }
}
layer {
  name: "even/pool1"
  type: "Pooling"
  bottom: "even/conv1"
  top: "even/pool1"
  pooling_param {
    pool: MAX
    kernel_size: 2
    stride: 2
  }
}
layer {
  name: "even/conv2"
  type: "Convolution"
  bottom: "even/pool1"
  top: "even/conv2"
  param {
    lr_mult: 0
  }
  param {
    lr_mult: 0
  }
  convolution_param {
    num_output: 50
    kernel_size: 5
    stride: 1
    weight_filler {
      type: "xavier"
    }
    bias_filler {
      type: "constant"
    }
  }
}
layer {
  name: "even/pool2"
  type: "Pooling"
  bottom: "even/conv2"
  top: "even/pool2"
  pooling_param {
    pool: MAX
    kernel_size: 2
    stride: 2
  }
}
layer {
  name: "even/ip1"
  type: "InnerProduct"
  bottom: "even/pool2"
  top: "even/ip1"
  param {
    lr_mult: 0
  }
  param {
    lr_mult: 0
  }
  inner_product_param {
    num_output: 500
    weight_filler {
      type: "xavier"
    }
    bias_filler {
      type: "constant"
    }
  }
}
layer {
  name: "even/relu1"
  type: "ReLU"
  bottom: "even/ip1"
  top: "even/ip1"
}
layer {
  name: "concat"
  type: "Concat"
  bottom: "odd/ip1"
  bottom: "even/ip1"
  top: "ip1_fused"
  concat_param {
    axis: 1
  }
}
layer {
  name: "ip2"
  type: "InnerProduct"
  bottom: "ip1_fused"
  top: "ip2"
  param {
    lr_mult: 1
  }
  param {
    lr_mult: 2
  }
  inner_product_param {
    num_output: 10
    weight_filler {
      type: "xavier"
    }
    bias_filler {
      type: "constant"
    }
  }
}
layer {
  name: "loss"
  type: "SoftmaxWithLoss"
  bottom: "ip2"
  bottom: "label"
  top: "loss"
}
I0902 23:26:44.665918  9659 layer_factory.hpp:77] Creating layer mnist
I0902 23:26:44.665951  9659 net.cpp:84] Creating Layer mnist
I0902 23:26:44.665956  9659 net.cpp:380] mnist -> data
I0902 23:26:44.665973  9659 net.cpp:380] mnist -> label
I0902 23:26:44.665985  9659 image_data_layer.cpp:38] Opening file train_all.txt
I0902 23:26:44.746670  9659 image_data_layer.cpp:63] A total of 50000 images.
I0902 23:26:44.748787  9659 image_data_layer.cpp:90] output data size: 50,1,28,28
I0902 23:26:44.750036  9659 net.cpp:122] Setting up mnist
I0902 23:26:44.750461  9659 net.cpp:129] Top shape: 50 1 28 28 (39200)
I0902 23:26:44.750471  9659 net.cpp:129] Top shape: 50 (50)
I0902 23:26:44.750473  9659 net.cpp:137] Memory required for data: 157000
I0902 23:26:44.750481  9659 layer_factory.hpp:77] Creating layer data_mnist_0_split
I0902 23:26:44.750493  9659 net.cpp:84] Creating Layer data_mnist_0_split
I0902 23:26:44.750497  9659 net.cpp:406] data_mnist_0_split <- data
I0902 23:26:44.750509  9659 net.cpp:380] data_mnist_0_split -> data_mnist_0_split_0
I0902 23:26:44.750516  9659 net.cpp:380] data_mnist_0_split -> data_mnist_0_split_1
I0902 23:26:44.750525  9659 net.cpp:122] Setting up data_mnist_0_split
I0902 23:26:44.750529  9659 net.cpp:129] Top shape: 50 1 28 28 (39200)
I0902 23:26:44.750531  9659 net.cpp:129] Top shape: 50 1 28 28 (39200)
I0902 23:26:44.750533  9659 net.cpp:137] Memory required for data: 470600
I0902 23:26:44.750535  9659 layer_factory.hpp:77] Creating layer odd/conv1
I0902 23:26:44.750548  9659 net.cpp:84] Creating Layer odd/conv1
I0902 23:26:44.750551  9659 net.cpp:406] odd/conv1 <- data_mnist_0_split_0
I0902 23:26:44.750555  9659 net.cpp:380] odd/conv1 -> odd/conv1
I0902 23:26:44.750591  9659 net.cpp:122] Setting up odd/conv1
I0902 23:26:44.750597  9659 net.cpp:129] Top shape: 50 20 24 24 (576000)
I0902 23:26:44.750598  9659 net.cpp:137] Memory required for data: 2774600
I0902 23:26:44.750612  9659 layer_factory.hpp:77] Creating layer odd/pool1
I0902 23:26:44.750615  9659 net.cpp:84] Creating Layer odd/pool1
I0902 23:26:44.750618  9659 net.cpp:406] odd/pool1 <- odd/conv1
I0902 23:26:44.750622  9659 net.cpp:380] odd/pool1 -> odd/pool1
I0902 23:26:44.750634  9659 net.cpp:122] Setting up odd/pool1
I0902 23:26:44.750638  9659 net.cpp:129] Top shape: 50 20 12 12 (144000)
I0902 23:26:44.750639  9659 net.cpp:137] Memory required for data: 3350600
I0902 23:26:44.750641  9659 layer_factory.hpp:77] Creating layer odd/conv2
I0902 23:26:44.750648  9659 net.cpp:84] Creating Layer odd/conv2
I0902 23:26:44.750649  9659 net.cpp:406] odd/conv2 <- odd/pool1
I0902 23:26:44.750653  9659 net.cpp:380] odd/conv2 -> odd/conv2
I0902 23:26:44.755003  9659 net.cpp:122] Setting up odd/conv2
I0902 23:26:44.755023  9659 net.cpp:129] Top shape: 50 50 8 8 (160000)
I0902 23:26:44.755026  9659 net.cpp:137] Memory required for data: 3990600
I0902 23:26:44.755036  9659 layer_factory.hpp:77] Creating layer odd/pool2
I0902 23:26:44.755044  9659 net.cpp:84] Creating Layer odd/pool2
I0902 23:26:44.755048  9659 net.cpp:406] odd/pool2 <- odd/conv2
I0902 23:26:44.755051  9659 net.cpp:380] odd/pool2 -> odd/pool2
I0902 23:26:44.755060  9659 net.cpp:122] Setting up odd/pool2
I0902 23:26:44.755064  9659 net.cpp:129] Top shape: 50 50 4 4 (40000)
I0902 23:26:44.755065  9659 net.cpp:137] Memory required for data: 4150600
I0902 23:26:44.755067  9659 layer_factory.hpp:77] Creating layer odd/ip1
I0902 23:26:44.755072  9659 net.cpp:84] Creating Layer odd/ip1
I0902 23:26:44.755075  9659 net.cpp:406] odd/ip1 <- odd/pool2
I0902 23:26:44.755079  9659 net.cpp:380] odd/ip1 -> odd/ip1
I0902 23:26:44.762616  9659 net.cpp:122] Setting up odd/ip1
I0902 23:26:44.766021  9659 net.cpp:129] Top shape: 50 500 (25000)
I0902 23:26:44.768165  9659 net.cpp:137] Memory required for data: 4250600
I0902 23:26:44.768331  9659 layer_factory.hpp:77] Creating layer odd/relu1
I0902 23:26:44.768488  9659 net.cpp:84] Creating Layer odd/relu1
I0902 23:26:44.769551  9659 net.cpp:406] odd/relu1 <- odd/ip1
I0902 23:26:44.769765  9659 net.cpp:367] odd/relu1 -> odd/ip1 (in-place)
I0902 23:26:44.769889  9659 net.cpp:122] Setting up odd/relu1
I0902 23:26:44.769994  9659 net.cpp:129] Top shape: 50 500 (25000)
I0902 23:26:44.770083  9659 net.cpp:137] Memory required for data: 4350600
I0902 23:26:44.771034  9659 layer_factory.hpp:77] Creating layer even/conv1
I0902 23:26:44.771158  9659 net.cpp:84] Creating Layer even/conv1
I0902 23:26:44.771296  9659 net.cpp:406] even/conv1 <- data_mnist_0_split_1
I0902 23:26:44.771414  9659 net.cpp:380] even/conv1 -> even/conv1
I0902 23:26:44.771569  9659 net.cpp:122] Setting up even/conv1
I0902 23:26:44.772217  9659 net.cpp:129] Top shape: 50 20 24 24 (576000)
I0902 23:26:44.772301  9659 net.cpp:137] Memory required for data: 6654600
I0902 23:26:44.772349  9659 layer_factory.hpp:77] Creating layer even/pool1
I0902 23:26:44.772362  9659 net.cpp:84] Creating Layer even/pool1
I0902 23:26:44.772368  9659 net.cpp:406] even/pool1 <- even/conv1
I0902 23:26:44.772373  9659 net.cpp:380] even/pool1 -> even/pool1
I0902 23:26:44.772383  9659 net.cpp:122] Setting up even/pool1
I0902 23:26:44.772387  9659 net.cpp:129] Top shape: 50 20 12 12 (144000)
I0902 23:26:44.772389  9659 net.cpp:137] Memory required for data: 7230600
I0902 23:26:44.772392  9659 layer_factory.hpp:77] Creating layer even/conv2
I0902 23:26:44.772398  9659 net.cpp:84] Creating Layer even/conv2
I0902 23:26:44.772400  9659 net.cpp:406] even/conv2 <- even/pool1
I0902 23:26:44.772403  9659 net.cpp:380] even/conv2 -> even/conv2
I0902 23:26:44.772814  9659 net.cpp:122] Setting up even/conv2
I0902 23:26:44.777453  9659 net.cpp:129] Top shape: 50 50 8 8 (160000)
I0902 23:26:44.782403  9659 net.cpp:137] Memory required for data: 7870600
I0902 23:26:44.782557  9659 layer_factory.hpp:77] Creating layer even/pool2
I0902 23:26:44.782655  9659 net.cpp:84] Creating Layer even/pool2
I0902 23:26:44.782743  9659 net.cpp:406] even/pool2 <- even/conv2
I0902 23:26:44.783577  9659 net.cpp:380] even/pool2 -> even/pool2
I0902 23:26:44.783684  9659 net.cpp:122] Setting up even/pool2
I0902 23:26:44.783821  9659 net.cpp:129] Top shape: 50 50 4 4 (40000)
I0902 23:26:44.783941  9659 net.cpp:137] Memory required for data: 8030600
I0902 23:26:44.784029  9659 layer_factory.hpp:77] Creating layer even/ip1
I0902 23:26:44.784121  9659 net.cpp:84] Creating Layer even/ip1
I0902 23:26:44.784409  9659 net.cpp:406] even/ip1 <- even/pool2
I0902 23:26:44.784503  9659 net.cpp:380] even/ip1 -> even/ip1
I0902 23:26:44.798547  9659 net.cpp:122] Setting up even/ip1
I0902 23:26:44.799353  9659 net.cpp:129] Top shape: 50 500 (25000)
I0902 23:26:44.799363  9659 net.cpp:137] Memory required for data: 8130600
I0902 23:26:44.799376  9659 layer_factory.hpp:77] Creating layer even/relu1
I0902 23:26:44.799386  9659 net.cpp:84] Creating Layer even/relu1
I0902 23:26:44.799388  9659 net.cpp:406] even/relu1 <- even/ip1
I0902 23:26:44.799393  9659 net.cpp:367] even/relu1 -> even/ip1 (in-place)
I0902 23:26:44.799401  9659 net.cpp:122] Setting up even/relu1
I0902 23:26:44.799402  9659 net.cpp:129] Top shape: 50 500 (25000)
I0902 23:26:44.799404  9659 net.cpp:137] Memory required for data: 8230600
I0902 23:26:44.799407  9659 layer_factory.hpp:77] Creating layer concat
I0902 23:26:44.799412  9659 net.cpp:84] Creating Layer concat
I0902 23:26:44.799414  9659 net.cpp:406] concat <- odd/ip1
I0902 23:26:44.799417  9659 net.cpp:406] concat <- even/ip1
I0902 23:26:44.799420  9659 net.cpp:380] concat -> ip1_fused
I0902 23:26:44.799430  9659 net.cpp:122] Setting up concat
I0902 23:26:44.799434  9659 net.cpp:129] Top shape: 50 1000 (50000)
I0902 23:26:44.799435  9659 net.cpp:137] Memory required for data: 8430600
I0902 23:26:44.799437  9659 layer_factory.hpp:77] Creating layer ip2
I0902 23:26:44.799443  9659 net.cpp:84] Creating Layer ip2
I0902 23:26:44.799445  9659 net.cpp:406] ip2 <- ip1_fused
I0902 23:26:44.799448  9659 net.cpp:380] ip2 -> ip2
I0902 23:26:44.799549  9659 net.cpp:122] Setting up ip2
I0902 23:26:44.799553  9659 net.cpp:129] Top shape: 50 10 (500)
I0902 23:26:44.799556  9659 net.cpp:137] Memory required for data: 8432600
I0902 23:26:44.799559  9659 layer_factory.hpp:77] Creating layer loss
I0902 23:26:44.799566  9659 net.cpp:84] Creating Layer loss
I0902 23:26:44.799568  9659 net.cpp:406] loss <- ip2
I0902 23:26:44.799571  9659 net.cpp:406] loss <- label
I0902 23:26:44.799576  9659 net.cpp:380] loss -> loss
I0902 23:26:44.799583  9659 layer_factory.hpp:77] Creating layer loss
…
I0902 23:26:44.804522  9659 solver.cpp:175] Creating test net (#0) specified by net file: lenet_fusion_train_val.prototxt
I0902 23:26:44.804653  9659 net.cpp:294] The NetState phase (1) differed from the phase (0) specified by a rule in layer mnist
I0902 23:26:44.804839  9659 net.cpp:51] Initializing net from parameters: 
name: "LeNet"
state {
  phase: TEST
}
layer {
  name: "mnist"
  type: "ImageData"
  top: "data"
  top: "label"
  include {
    phase: TEST
  }
  transform_param {
    scale: 0.00390625
    mean_value: 128
  }
  image_data_param {
    source: "val_all.txt"
    batch_size: 20
    is_color: false
  }
}
layer {
  name: "odd/conv1"
  type: "Convolution"
  bottom: "data"
  top: "odd/conv1"
  param {
    lr_mult: 0
  }
  param {
    lr_mult: 0
  }
  convolution_param {
    num_output: 20
    kernel_size: 5
    stride: 1
    weight_filler {
      type: "xavier"
    }
    bias_filler {
      type: "constant"
    }
  }
}
layer {
  name: "odd/pool1"
  type: "Pooling"
  bottom: "odd/conv1"
  top: "odd/pool1"
  pooling_param {
    pool: MAX
    kernel_size: 2
    stride: 2
  }
}
layer {
  name: "odd/conv2"
  type: "Convolution"
  bottom: "odd/pool1"
  top: "odd/conv2"
  param {
    lr_mult: 0
  }
  param {
    lr_mult: 0
  }
  convolution_param {
    num_output: 50
    kernel_size: 5
    stride: 1
    weight_filler {
      type: "xavier"
    }
    bias_filler {
      type: "constant"
    }
  }
}
layer {
  name: "odd/pool2"
  type: "Pooling"
  bottom: "odd/conv2"
  top: "odd/pool2"
  pooling_param {
    pool: MAX
    kernel_size: 2
    stride: 2
  }
}
layer {
  name: "odd/ip1"
  type: "InnerProduct"
  bottom: "odd/pool2"
  top: "odd/ip1"
  param {
    lr_mult: 0
  }
  param {
    lr_mult: 0
  }
  inner_product_param {
    num_output: 500
    weight_filler {
      type: "xavier"
    }
    bias_filler {
      type: "constant"
    }
  }
}
layer {
  name: "odd/relu1"
  type: "ReLU"
  bottom: "odd/ip1"
  top: "odd/ip1"
}
layer {
  name: "even/conv1"
  type: "Convolution"
  bottom: "data"
  top: "even/conv1"
  param {
    lr_mult: 0
  }
  param {
    lr_mult: 0
  }
  convolution_param {
    num_output: 20
    kernel_size: 5
    stride: 1
    weight_filler {
      type: "xavier"
    }
    bias_filler {
      type: "constant"
    }
  }
}
layer {
  name: "even/pool1"
  type: "Pooling"
  bottom: "even/conv1"
  top: "even/pool1"
  pooling_param {
    pool: MAX
    kernel_size: 2
    stride: 2
  }
}
layer {
  name: "even/conv2"
  type: "Convolution"
  bottom: "even/pool1"
  top: "even/conv2"
  param {
    lr_mult: 0
  }
  param {
    lr_mult: 0
  }
  convolution_param {
    num_output: 50
    kernel_size: 5
    stride: 1
    weight_filler {
      type: "xavier"
    }
    bias_filler {
      type: "constant"
    }
  }
}
layer {
  name: "even/pool2"
  type: "Pooling"
  bottom: "even/conv2"
  top: "even/pool2"
  pooling_param {
    pool: MAX
    kernel_size: 2
    stride: 2
  }
}
layer {
  name: "even/ip1"
  type: "InnerProduct"
  bottom: "even/pool2"
  top: "even/ip1"
  param {
    lr_mult: 0
  }
  param {
    lr_mult: 0
  }
  inner_product_param {
    num_output: 500
    weight_filler {
      type: "xavier"
    }
    bias_filler {
      type: "constant"
    }
  }
}
layer {
  name: "even/relu1"
  type: "ReLU"
  bottom: "even/ip1"
  top: "even/ip1"
}
layer {
  name: "concat"
  type: "Concat"
  bottom: "odd/ip1"
  bottom: "even/ip1"
  top: "ip1_fused"
  concat_param {
    axis: 1
  }
}
layer {
  name: "ip2"
  type: "InnerProduct"
  bottom: "ip1_fused"
  top: "ip2"
  param {
    lr_mult: 1
  }
  param {
    lr_mult: 2
  }
  inner_product_param {
    num_output: 10
    weight_filler {
      type: "xavier"
    }
    bias_filler {
      type: "constant"
    }
  }
}
layer {
  name: "accuracy"
  type: "Accuracy"
  bottom: "ip2"
  bottom: "label"
  top: "accuracy"
  include {
    phase: TEST
  }
}
layer {
  name: "loss"
  type: "SoftmaxWithLoss"
  bottom: "ip2"
  bottom: "label"
  top: "loss"
}
I0902 23:26:44.805519  9659 layer_factory.hpp:77] Creating layer mnist
I0902 23:26:44.805537  9659 net.cpp:84] Creating Layer mnist
I0902 23:26:44.805541  9659 net.cpp:380] mnist -> data
I0902 23:26:44.805552  9659 net.cpp:380] mnist -> label
I0902 23:26:44.805558  9659 image_data_layer.cpp:38] Opening file val_all.txt
I0902 23:26:44.837357  9659 image_data_layer.cpp:63] A total of 10000 images.
I0902 23:26:44.844882  9659 image_data_layer.cpp:90] output data size: 20,1,28,28
I0902 23:26:44.845113  9659 net.cpp:122] Setting up mnist
I0902 23:26:44.845185  9659 net.cpp:129] Top shape: 20 1 28 28 (15680)
I0902 23:26:44.845191  9659 net.cpp:129] Top shape: 20 (20)
I0902 23:26:44.845193  9659 net.cpp:137] Memory required for data: 62800
I0902 23:26:44.845386  9659 layer_factory.hpp:77] Creating layer data_mnist_0_split
I0902 23:26:44.845422  9659 net.cpp:84] Creating Layer data_mnist_0_split
I0902 23:26:44.845427  9659 net.cpp:406] data_mnist_0_split <- data
I0902 23:26:44.845432  9659 net.cpp:380] data_mnist_0_split -> data_mnist_0_split_0
I0902 23:26:44.845441  9659 net.cpp:380] data_mnist_0_split -> data_mnist_0_split_1
I0902 23:26:44.845448  9659 net.cpp:122] Setting up data_mnist_0_split
I0902 23:26:44.845453  9659 net.cpp:129] Top shape: 20 1 28 28 (15680)
I0902 23:26:44.845455  9659 net.cpp:129] Top shape: 20 1 28 28 (15680)
I0902 23:26:44.845458  9659 net.cpp:137] Memory required for data: 188240
I0902 23:26:44.845459  9659 layer_factory.hpp:77] Creating layer label_mnist_1_split
I0902 23:26:44.845463  9659 net.cpp:84] Creating Layer label_mnist_1_split
I0902 23:26:44.845465  9659 net.cpp:406] label_mnist_1_split <- label
I0902 23:26:44.845469  9659 net.cpp:380] label_mnist_1_split -> label_mnist_1_split_0
I0902 23:26:44.845474  9659 net.cpp:380] label_mnist_1_split -> label_mnist_1_split_1
I0902 23:26:44.845499  9659 net.cpp:122] Setting up label_mnist_1_split
I0902 23:26:44.845502  9659 net.cpp:129] Top shape: 20 (20)
I0902 23:26:44.845505  9659 net.cpp:129] Top shape: 20 (20)
I0902 23:26:44.845506  9659 net.cpp:137] Memory required for data: 188400
I0902 23:26:44.845508  9659 layer_factory.hpp:77] Creating layer odd/conv1
I0902 23:26:44.845517  9659 net.cpp:84] Creating Layer odd/conv1
I0902 23:26:44.845520  9659 net.cpp:406] odd/conv1 <- data_mnist_0_split_0
I0902 23:26:44.845525  9659 net.cpp:380] odd/conv1 -> odd/conv1
I0902 23:26:44.845548  9659 net.cpp:122] Setting up odd/conv1
I0902 23:26:44.845551  9659 net.cpp:129] Top shape: 20 20 24 24 (230400)
I0902 23:26:44.845553  9659 net.cpp:137] Memory required for data: 1110000
I0902 23:26:44.845561  9659 layer_factory.hpp:77] Creating layer odd/pool1
I0902 23:26:44.845567  9659 net.cpp:84] Creating Layer odd/pool1
I0902 23:26:44.845569  9659 net.cpp:406] odd/pool1 <- odd/conv1
I0902 23:26:44.845572  9659 net.cpp:380] odd/pool1 -> odd/pool1
I0902 23:26:44.845579  9659 net.cpp:122] Setting up odd/pool1
I0902 23:26:44.845582  9659 net.cpp:129] Top shape: 20 20 12 12 (57600)
I0902 23:26:44.845584  9659 net.cpp:137] Memory required for data: 1340400
I0902 23:26:44.845587  9659 layer_factory.hpp:77] Creating layer odd/conv2
I0902 23:26:44.845590  9659 net.cpp:84] Creating Layer odd/conv2
I0902 23:26:44.845593  9659 net.cpp:406] odd/conv2 <- odd/pool1
I0902 23:26:44.845597  9659 net.cpp:380] odd/conv2 -> odd/conv2
I0902 23:26:44.847616  9659 net.cpp:122] Setting up odd/conv2
I0902 23:26:44.848310  9659 net.cpp:129] Top shape: 20 50 8 8 (64000)
I0902 23:26:44.848325  9659 net.cpp:137] Memory required for data: 1596400
I0902 23:26:44.848337  9659 layer_factory.hpp:77] Creating layer odd/pool2
I0902 23:26:44.848346  9659 net.cpp:84] Creating Layer odd/pool2
I0902 23:26:44.848350  9659 net.cpp:406] odd/pool2 <- odd/conv2
I0902 23:26:44.848354  9659 net.cpp:380] odd/pool2 -> odd/pool2
I0902 23:26:44.848366  9659 net.cpp:122] Setting up odd/pool2
I0902 23:26:44.848368  9659 net.cpp:129] Top shape: 20 50 4 4 (16000)
I0902 23:26:44.848371  9659 net.cpp:137] Memory required for data: 1660400
I0902 23:26:44.848372  9659 layer_factory.hpp:77] Creating layer odd/ip1
I0902 23:26:44.848377  9659 net.cpp:84] Creating Layer odd/ip1
I0902 23:26:44.848381  9659 net.cpp:406] odd/ip1 <- odd/pool2
I0902 23:26:44.848383  9659 net.cpp:380] odd/ip1 -> odd/ip1
I0902 23:26:44.858482  9659 net.cpp:122] Setting up odd/ip1
I0902 23:26:44.859344  9659 net.cpp:129] Top shape: 20 500 (10000)
I0902 23:26:44.859355  9659 net.cpp:137] Memory required for data: 1700400
I0902 23:26:44.859369  9659 layer_factory.hpp:77] Creating layer odd/relu1
I0902 23:26:44.859378  9659 net.cpp:84] Creating Layer odd/relu1
I0902 23:26:44.859382  9659 net.cpp:406] odd/relu1 <- odd/ip1
I0902 23:26:44.859386  9659 net.cpp:367] odd/relu1 -> odd/ip1 (in-place)
I0902 23:26:44.859393  9659 net.cpp:122] Setting up odd/relu1
I0902 23:26:44.859396  9659 net.cpp:129] Top shape: 20 500 (10000)
I0902 23:26:44.859398  9659 net.cpp:137] Memory required for data: 1740400
I0902 23:26:44.859400  9659 layer_factory.hpp:77] Creating layer even/conv1
I0902 23:26:44.859408  9659 net.cpp:84] Creating Layer even/conv1
I0902 23:26:44.859411  9659 net.cpp:406] even/conv1 <- data_mnist_0_split_1
I0902 23:26:44.859416  9659 net.cpp:380] even/conv1 -> even/conv1
I0902 23:26:44.859441  9659 net.cpp:122] Setting up even/conv1
I0902 23:26:44.859444  9659 net.cpp:129] Top shape: 20 20 24 24 (230400)
I0902 23:26:44.859447  9659 net.cpp:137] Memory required for data: 2662000
I0902 23:26:44.859450  9659 layer_factory.hpp:77] Creating layer even/pool1
I0902 23:26:44.859454  9659 net.cpp:84] Creating Layer even/pool1
I0902 23:26:44.859457  9659 net.cpp:406] even/pool1 <- even/conv1
I0902 23:26:44.859459  9659 net.cpp:380] even/pool1 -> even/pool1
I0902 23:26:44.859467  9659 net.cpp:122] Setting up even/pool1
I0902 23:26:44.859469  9659 net.cpp:129] Top shape: 20 20 12 12 (57600)
I0902 23:26:44.859472  9659 net.cpp:137] Memory required for data: 2892400
I0902 23:26:44.859491  9659 layer_factory.hpp:77] Creating layer even/conv2
I0902 23:26:44.859498  9659 net.cpp:84] Creating Layer even/conv2
I0902 23:26:44.859499  9659 net.cpp:406] even/conv2 <- even/pool1
I0902 23:26:44.859503  9659 net.cpp:380] even/conv2 -> even/conv2
I0902 23:26:44.859678  9659 net.cpp:122] Setting up even/conv2
I0902 23:26:44.859681  9659 net.cpp:129] Top shape: 20 50 8 8 (64000)
I0902 23:26:44.859683  9659 net.cpp:137] Memory required for data: 3148400
I0902 23:26:44.859689  9659 layer_factory.hpp:77] Creating layer even/pool2
I0902 23:26:44.859694  9659 net.cpp:84] Creating Layer even/pool2
I0902 23:26:44.869351  9659 net.cpp:406] even/pool2 <- even/conv2
I0902 23:26:44.869387  9659 net.cpp:380] even/pool2 -> even/pool2
I0902 23:26:44.869405  9659 net.cpp:122] Setting up even/pool2
I0902 23:26:44.869411  9659 net.cpp:129] Top shape: 20 50 4 4 (16000)
I0902 23:26:44.869413  9659 net.cpp:137] Memory required for data: 3212400
I0902 23:26:44.869416  9659 layer_factory.hpp:77] Creating layer even/ip1
I0902 23:26:44.869423  9659 net.cpp:84] Creating Layer even/ip1
I0902 23:26:44.869426  9659 net.cpp:406] even/ip1 <- even/pool2
I0902 23:26:44.869429  9659 net.cpp:380] even/ip1 -> even/ip1
I0902 23:26:44.879693  9659 net.cpp:122] Setting up even/ip1
I0902 23:26:44.880507  9659 net.cpp:129] Top shape: 20 500 (10000)
I0902 23:26:44.880517  9659 net.cpp:137] Memory required for data: 3252400
I0902 23:26:44.880527  9659 layer_factory.hpp:77] Creating layer even/relu1
I0902 23:26:44.880535  9659 net.cpp:84] Creating Layer even/relu1
I0902 23:26:44.880539  9659 net.cpp:406] even/relu1 <- even/ip1
I0902 23:26:44.880544  9659 net.cpp:367] even/relu1 -> even/ip1 (in-place)
I0902 23:26:44.880551  9659 net.cpp:122] Setting up even/relu1
I0902 23:26:44.880554  9659 net.cpp:129] Top shape: 20 500 (10000)
I0902 23:26:44.880556  9659 net.cpp:137] Memory required for data: 3292400
I0902 23:26:44.880558  9659 layer_factory.hpp:77] Creating layer concat
I0902 23:26:44.880563  9659 net.cpp:84] Creating Layer concat
I0902 23:26:44.880566  9659 net.cpp:406] concat <- odd/ip1
I0902 23:26:44.880569  9659 net.cpp:406] concat <- even/ip1
I0902 23:26:44.880573  9659 net.cpp:380] concat -> ip1_fused
I0902 23:26:44.880583  9659 net.cpp:122] Setting up concat
I0902 23:26:44.880585  9659 net.cpp:129] Top shape: 20 1000 (20000)
I0902 23:26:44.880587  9659 net.cpp:137] Memory required for data: 3372400
I0902 23:26:44.880589  9659 layer_factory.hpp:77] Creating layer ip2
I0902 23:26:44.880597  9659 net.cpp:84] Creating Layer ip2
I0902 23:26:44.880599  9659 net.cpp:406] ip2 <- ip1_fused
I0902 23:26:44.880604  9659 net.cpp:380] ip2 -> ip2
I0902 23:26:44.880681  9659 net.cpp:122] Setting up ip2
I0902 23:26:44.880686  9659 net.cpp:129] Top shape: 20 10 (200)
I0902 23:26:44.880686  9659 net.cpp:137] Memory required for data: 3373200
I0902 23:26:44.880690  9659 layer_factory.hpp:77] Creating layer ip2_ip2_0_split
I0902 23:26:44.880694  9659 net.cpp:84] Creating Layer ip2_ip2_0_split
I0902 23:26:44.880697  9659 net.cpp:406] ip2_ip2_0_split <- ip2
I0902 23:26:44.880700  9659 net.cpp:380] ip2_ip2_0_split -> ip2_ip2_0_split_0
I0902 23:26:44.880704  9659 net.cpp:380] ip2_ip2_0_split -> ip2_ip2_0_split_1
I0902 23:26:44.880709  9659 net.cpp:122] Setting up ip2_ip2_0_split
I0902 23:26:44.880712  9659 net.cpp:129] Top shape: 20 10 (200)
I0902 23:26:44.880714  9659 net.cpp:129] Top shape: 20 10 (200)
I0902 23:26:44.880717  9659 net.cpp:137] Memory required for data: 3374800
I0902 23:26:44.880718  9659 layer_factory.hpp:77] Creating layer accuracy
I0902 23:26:44.880722  9659 net.cpp:84] Creating Layer accuracy
I0902 23:26:44.880724  9659 net.cpp:406] accuracy <- ip2_ip2_0_split_0
I0902 23:26:44.880728  9659 net.cpp:406] accuracy <- label_mnist_1_split_0
I0902 23:26:44.880730  9659 net.cpp:380] accuracy -> accuracy
…
